silica_energy_model.pt (torch, 501072 bytes, 7 tensors)

layers.0.weight f4 [256, 324]
-0.019775277 -0.015320839 6.572612e-05 0.021556582 -0.052559305 -0.036393538 -0.035069786 0.025931207
-0.019493679 -0.017258653 -0.040229652 -0.019356096 -0.058206197 -0.0036675418 -0.033767693 0.030985544
-0.045684505 0.027736036 0.044769343 -0.055182874 0.023477774 -0.005047434 -0.055558078 0.03295796
0.01944243 -0.035625726 0.022019487 -0.061820548 0.03702615 0.0061997846 0.035420768 0.03980212
0.039977424 0.030844927 -0.0024014448 -0.04201569 -0.031786475 0.013444622 -0.050355062 -0.0011992285
-0.04519505 0.04614051 -0.0106972335 -0.051541194 0.028658628 -0.047157064 -0.038141426 0.0011180054
-0.017231958 0.04268257 -0.0026652806 -0.04688337 -0.04479158 -0.014130254 0.007435271 -0.024795461
-0.059703458 0.013946196 -0.045576654 0.03595896 0.04666914 -0.051615536 0.03357569 0.024368213
-0.05330359 0.04422699 0.030177 -0.0155930035 -0.0020924055 0.042472094 0.027784089 0.028961523
-0.035382528 -0.058754988 -0.003389691 -0.058537077 -0.031136194 -0.023650575 -0.054141976 0.015071194
-0.031494837 0.042086978 0.029821742 0.040694714 0.045066368 -0.027576664 -0.025038067 0.0028832885
-0.020520026 -0.024642678 -0.0063265683 -0.026840402 -0.037020594 -0.041349452 0.021244783 -0.0013839199
-0.055060647 -0.009277169 -0.050062384 0.022759223 -0.00022430278 -0.040168967 -0.02630153 -0.03847369
-0.02209646 0.0410868 0.040887944 0.047202032 -0.02707776 0.027011517 0.013385332 -0.057218373
-0.050123543 0.01605824 -0.029056272 0.017590612 0.040828604 0.036096223 0.0055365996 -0.0033296046
0.022700319 0.02684573 -0.015496763 -0.05132832 0.0071579623 0.028780652 -0.00315532 -0.014586801
-0.05838154 -0.02234191 -0.019544909 -0.0035339803 0.015604462 0.014727219 -0.04210996 0.030484458
-0.056705825 0.041441653 -0.03735186 -0.056794576 -0.057062596 0.0056907833 0.006703216 0.03414472
-0.031175004 -0.061235793 0.03529791 0.039827026 -0.062188927 -0.058067862 0.023709213 -0.013134179
0.02719248 -0.020796232 0.004168725 -0.038807373 0.02882701 -0.047436513 0.032873023 0.0281813
-0.022526333 -0.029710924 -0.02401138 0.012727081 -0.047276963 -0.050550763 0.030290525 0.012498679
0.012916016 0.008155565 0.04380721 0.038196396 -0.03588982 -0.021990377 0.02412929 0.043587107
0.022132186 0.045763195 -0.034125213 -0.020833526 -0.04434384 0.044423748 -0.010862236 0.019880537
-0.008523615 -0.04892711 -0.05929553 0.022863608 -0.015870897 0.0137927495 0.039833453 0.022430798
-0.030437145 0.021482207 0.02590395 -0.019113505 -0.04060422 -0.0073974337 -0.030144665 0.028488657
-0.0184768 -0.0551256 -0.021142142 -0.022853626 0.012168856 0.043190517 0.030937383 -0.06106864
-0.048795056 -0.047309857 -0.019199423 -0.0120211905 0.043952357 -0.04685852 0.04316956 0.025861003
-0.05545745 0.03856296 -0.005443193 -0.059136614 -0.010174947 0.04506218 -0.027203884 0.009129324
0.012906594 -0.04574591 0.016184153 -0.0224853 -0.0065517747 -0.007042065 0.033012833 -0.05583069
-0.030895257 -0.032649327 -0.02027062 0.039850123 0.04513294 0.027044926 0.034129884 0.015426284
0.020458661 -0.035225973 -0.017243696 -0.04862073 0.026456578 0.011339994 0.0026294617 0.010744218
0.015326459 -0.0016720641 -0.046132475 0.004871086 -0.028060827 0.016742853 0.032515906 -0.040263236
00000000: c3ff a1bc 4204 7bbc 71d6 8938 6e97 b03c
00000010: 6d48 57bd 6411 15bd 56a5 0fbd af6d d43c
00000020: 35b1 9fbc 0562 8dbc d9c7 24bd ad90 9ebc
00000030: 9f69 6ebd 245b 70bb fe4f 0abd 65d5 fd3c
00000040: ad1f 3bbd af36 e33c 0f60 373d 7007 62bd
00000050: 7654 c03c f264 a5bb de90 63bd edfe 063d
00000060: bb45 9f3c 48ec 11bd 3662 b43c 8b37 7dbd
00000070: bba8 173d 9027 cb3b 5e15 113d 8c07 233d
00000080: 5ebf 233d 80ae fc3c 8f61 1dbb a518 2cbd
00000090: 8932 02bd d546 5c3c 1c41 4ebd 6e2f 9dba
000000a0: 721e 39bd d5fd 3c3d 7343 2fbc dc1c 53bd
000000b0: 80c5 ea3c c427 41bd 2f3a 1cbd 098a 923a
000000c0: 092a 8dbc ebd3 2e3d fdab 2ebb c708 40bd
000000d0: 6077 37bd 9582 67bc 93a3 f33b da1f cbbc
000000e0: 9d8b 74bd 967e 643c 96ae 3abd b449 133d
000000f0: 2428 3f3d d06a 53bd aa86 093d d99f c73c
00000100: dd54 5abd 5c27 353d c235 f73c cc79 7fbc
00000110: bd20 09bb 38f7 2d3d 759b e33c b740 ed3c
00000120: 45ed 10bd 12a9 70bd 9425 5ebb 93c4 6fbd
00000130: 5511 ffbc dabe c1bc fac3 5dbd 2bed 763c
00000140: bb00 01bd 6563 2c3d ba4c f43c 80af 263d
00000150: 8397 383d 75e8 e1bc a21c cdbc 8ef5 3c3b
00000160: 9d19 a8bc 71df c9bc 1a4f cfbb 67e0 dbbc
00000170: e8a2 17bd 0b5e 29bd 8a09 ae3c a564 b5ba
00000180: 4687 61bd 44ff 17bc 370e 4dbd 8d71 ba3c
00000190: d232 6bb9 3788 24bd 4e76 d7bc 9796 1dbd
000001a0: a303 b5bc a24a 283d 1e7a 273d eb56 413d
000001b0: 2ed2 ddbc 4247 dd3c 274e 5b3c d05d 6abd
000001c0: 584e 4dbd 928c 833c 6b07 eebc 301a 903c
000001d0: e53b 273d a2d9 133d 5d6c b53b 7f35 5abb
000001e0: 05f6 b93c 94eb db3c 23e6 7dbc a53d 52bd
000001f0: 578d ea3b 67c5 eb3c 7cc9 4ebb 7afd 6ebc
00000200: 7b21 6fbd 6206 b7bc a51c a0bc 5a9a 67bb
00000210: dba9 7f3c 6f4a 713c 7e7b 2cbd 8bba f93c
00000220: 5e44 68bd b9be 293d 44fe 18bd 6ea1 68bd
00000230: 78ba 69bd c079 ba3b a7a6 db3b 55db 0b3d
00000240: b962 ffbc 62d2 7abd 8b94 103d aa21 233d
00000250: d1b9 7ebd 91d8 6dbd d339 c23c bd30 57bc
00000260: c4c2 de3c dc5c aabc cd99 883b 7bf4 1ebd
00000270: 9f26 ec3c ca4c 42bd dda5 063d 78dc e63c
00000280: 2589 b8bc 5364 f3bc 83b3 c4bc 3f85 503c
00000290: 7da5 41bd 510e 4fbd d623 f83c 42c7 4c3c
000002a0: b39d 533c eb9e 053c 306f 333d d373 1c3d
000002b0: 3401 13bd 2a25 b4bc caaa c53c 6588 323d
000002c0: 8f4e b53c 3072 3b3d e1c6 0bbd 12ab aabc
000002d0: e3a1 35bd adf5 353d 85f7 31bc 82dc a23c
000002e0: a2a6 0bbc cb67 48bd dfdf 72bd 764c bb3c
000002f0: af03 82bc fcfa 613c 6728 233d cbc0 b73c
00000300: 5257 f9bc 74fb af3c 8534 d43c ed93 9cbc
00000310: 9c50 26bd 2c66 f2bb f2f1 f6bc 0b61 e93c
00000320: a85c 97bc 62cb 61bd 4932 adbc 8737 bbbc
00000330: e25f 473c 8ae8 303d 6570 fd3c 1c23 7abd
00000340: 53dd 47bd fbc7 41bd 1c48 9dbc 87f4 44bc
00000350: 6307 343d b8ee 3fbd 91d2 303d 74da d33c
00000360: 5a27 63bd 32f4 1d3d d05c b2bb 3c39 72bd
00000370: d2b4 26bc 1f93 383d aeda debc 2993 153c
00000380: 2e76 533c 1060 3bbd a194 843c 1833 b8bc
00000390: 45b0 d6bb 1fc1 e6bb 7738 073d b9ae 64bd
000003a0: 0d18 fdbc 4dbb 05bd 920e a6bc e239 233d
000003b0: 51dd 383d 528d dd3c c7cb 0b3d 86be 7c3c
000003c0: ec98 a73c 1c49 10bd a742 8dbc 8826 47bd
000003d0: 77bb d83c 62cb 393c 0c53 2c3b 8408 303c
000003e0: d41b 7b3c 2929 dbba 68f5 3cbd a29d 9f3b
000003f0: d2df e5bc 4f28 893c 662f 053d 10eb 24bd

layers.0.bias f4 [256]
-0.0044603855 0.11174035 0.0052764006 0.112010635 0.049723517 -0.01298966 0.113390386 0.0155028
0.048901983 0.048675183 0.09930961 0.09877561 -0.0014024563 -0.0052718446 0.024063986 -0.0433298
0.05198439 0.0038720705 -0.038531825 0.03472438 -0.042415313 0.03566223 -0.031089285 -0.038004186
-0.049597 0.01083741 0.060144626 0.008528746 0.08222103 0.1053195 0.11106577 0.00810251
0.0338397 0.047587533 -0.044394813 0.030123826 0.11343636 0.024646087 -0.04214658 -0.0133657195
-0.028164757 -0.042913046 -0.0151861645 0.0036520548 0.06034745 0.02628122 0.009443607 0.025998687
-0.036334798 -0.011713665 -0.023062859 0.03289016 0.051942173 0.011301156 0.030693088 -0.04710591
0.07287362 0.043011397 -0.05385891 0.01899648 -0.010585051 0.1089169 0.10913101 0.05544245
0.042167217 0.01396684 -0.035255022 0.059373524 -0.028113829 0.02525687 -0.018479818 0.115093
0.047672413 0.0014088375 -0.045120016 0.025808547 -0.0032898635 -0.025890805 0.01837733 -0.016843013
0.10728446 0.01860625 -0.031490874 0.040882017 0.10827007 -0.029448787 -0.038000517 -0.042175874
0.019448044 0.028868962 0.014227536 0.038451497 0.042471725 0.0034726858 0.028841794 -0.033900566
0.1022362 0.07728843 0.02413342 0.073436335 0.004855588 0.03220338 0.041217025 -0.035960972
0.020092372 0.05753903 0.0066303015 -0.0006210552 0.068307236 0.0032138154 0.014969815 -0.0075145336
-0.013961699 0.013031047 0.10896466 -0.0032877165 0.11000299 0.08768286 0.13035326 0.056421913
-0.022387266 -0.035034463 0.029284481 0.027384002 0.04832336 -0.004297249 0.08560201 -0.012170307
0.105013564 -0.05172246 -0.045036696 0.008132737 0.10817332 0.03884453 -0.053741753 -0.028934008
-0.007679956 0.051727764 0.015142221 -0.009141907 0.08000839 0.08656238 0.10791763 -0.06368629
0.01773483 -0.00685376 0.042895246 0.0033014826 0.004832275 0.06914106 -0.06300059 0.011495482
-0.01596991 0.04001109 0.042435575 0.04277789 0.018834922 -0.05114674 0.0023077957 0.033002753
-0.039550662 0.02215758 -0.056315806 0.006924551 -0.027010197 0.036574375 0.09722422 0.055058744
0.0024279766 0.08722661 0.033254635 -0.051253814 -0.029965136 0.03392005 -0.01761638 0.082264185
0.030071702 -0.028963083 -0.005571902 0.02753735 -0.00014812098 -0.05486823 0.041776787 0.040074047
0.0894295 0.017496523 0.016898952 0.023070764 0.018004123 -0.041812412 0.10291471 0.02042253
-0.0031402893 0.09900102 -0.0037190467 0.039150495 0.009225893 -0.014509083 -0.041807514 0.039249983
0.06686975 0.06487785 -0.035840098 0.016200531 -0.039111003 -0.02119095 -0.0070077777 -0.022885611
0.02627565 -0.031183667 0.040452532 -0.046346888 0.030698743 0.029922912 0.013132503 -0.009482495
0.005826041 0.017064817 0.011024948 0.117097385 0.037885074 0.059927087 0.04921425 0.0039587547
0.12106178 0.10574619 -0.018130712 0.04716447 -0.0381044 -0.04312373 0.06290905 -0.0061310865
0.023020057 -0.045824554 0.03923152 -0.02955742 0.10597875 -0.022942252 -0.009607446 0.11808786
0.004178035 -0.00263232 0.053232748 0.04423945 0.022043455 0.12052433 0.06534374 0.087996006
0.009233113 -0.037691012 0.057002418 0.04914644 0.030418027 -0.009493429 -0.04286839 -0.025679622
00000000: 6d28 92bb 20d8 e43d a8e5 ac3b d565 e53d
00000010: e3aa 4b3d 95d2 54bc 3839 e83d 75ff 7d3c
00000020: 724d 483d a15f 473d d662 cb3d de4a ca3d
00000030: a0d2 b7ba 70bf acbb d621 c53c 977a 31bd
00000040: 95ed 543d 90c2 7d3b 8cd3 1dbd 273b 0e3d
00000050: aebb 2dbd 8f12 123d f5ae febc 47aa 1bbd
00000060: 3926 4bbd 648f 313c 365a 763d 27bc 0b3c
00000070: 8063 a83d c0b1 d73d 7376 e33d 64c0 043c
00000080: 7f9b 0a3d 25eb 423d 56d7 35bd 3ec6 f63c
00000090: 5351 e83d 97e6 c93c e4a1 2cbd e4fb 5abc
000000a0: c7b9 e6bc 97c5 2fbd 64cf 78bc 5057 6f3b
000000b0: e32e 773d b74b d73c 5cb9 1a3c 33fb d43c
000000c0: ccd3 14bd acea 3fbc 52ee bcbc d5b7 063d
000000d0: 51c1 543d 7c28 393c 1270 fb3c 20f2 40bd
000000e0: c43e 953d b82c 303d 299b 5cbd 829e 9b3c
000000f0: ec6c 2dbc d30f df3d 1480 df3d 9f17 633d
00000100: 88b7 2c3d 2cd5 643c 9267 10bd a731 733d
00000110: f94e e6bc 7fe7 ce3c fd62 97bc e1b5 eb3d
00000120: 2644 433d bea8 b83a c4cf 38bd 726c d33c
00000130: c09a 57bb f418 d4bc 0e8c 963c 5cfa 89bc
00000140: f4b7 db3d 226c 983c 93fc 00bd e773 273d
00000150: b3bc dd3d 953e f1bc 6ea6 1bbd 9cc0 2cbd
00000160: 8151 9f3c 9a7e ec3c 9c1a 693c 517f 1d3d
00000170: d5f6 2d3d 0096 633b a045 ec3c 52db 0abd
00000180: 3661 d13d 6549 9e3d 73b3 c53c ca65 963d
00000190: a01b 9f3b b1e7 033d 2fd3 283d d04b 13bd
000001a0: c298 a43c 0cae 6b3d 0043 d93b 4fce 22ba
000001b0: aae4 8b3d e09e 523b f443 753c 7a3c f6bb
000001c0: 9cbf 64bc 2c80 553c dd28 df3d bb76 57bb
000001d0: 3f49 e13d 1293 b33d 537b 053e aa1a 673d
000001e0: 8065 b7bc 4c80 0fbd 02e6 ef3c 6a54 e03c
000001f0: b7ee 453d f0cf 8cbb 1b50 af3d f865 47bc
00000200: 5a11 d73d eeda 53bd 6678 38bd 2c3f 053c
00000210: f989 dd3d 711b 1f3d 5020 5cbd 0307 edbc
00000220: 24a8 fbbb 7ee0 533d 1417 783c f0c7 15bc
00000230: 70db a33d 9e47 b13d eb03 dd3d f56d 82bd
00000240: a248 913c 8295 e0bb edb2 2f3d b05d 583b
00000250: 1058 9e3b d499 8d3d 7406 81bd 8c57 3c3c
00000260: 54d3 82bc abe2 233d edd0 2d3d de37 2f3d
00000270: b24b 9a3c 3e7f 51bd 633e 173b e52d 073d
00000280: e0ff 21bd d083 b53c 67ab 66bd 58e7 e23b
00000290: 7d44 ddbc 03cf 153d 7e1d c73d 4785 613d
000002a0: b01e 1f3b dda3 b23d 0336 083d 85ef 51bd
000002b0: 7279 f5bc c0ef 0a3d 3a50 90bc 207a a83d
000002c0: ee58 f63c fd43 edbc 8094 b6bb 0296 e13c
000002d0: ec50 1bb9 82bd 60bd 231e 2b3d af24 243d
000002e0: d026 b73d de54 8f3c ac6f 8a3c e6fe bc3c
000002f0: 627d 933c 7e43 2bbd f3c4 d23d 264d a73c
00000300: 50cd 4dbb 0cc1 ca3d 40bb 73bb 455c 203d
00000310: 3328 173c 81b7 6dbc 5b3e 2bbd 97c4 203d
00000320: 02f3 883d aede 843d 11cd 12bd fab6 843c
00000330: dc32 20bd a598 adbc 80a1 e5bb 9b7a bbbc
00000340: 0840 d73c e474 ffbc 8eb1 253d 3cd6 3dbd
00000350: ee7b fb3c e520 f53c b629 573c 775c 1bbc
00000360: 60e8 be3b 84cb 8b3c fca1 343c c1d0 ef3d
00000370: 612d 1b3d 1b76 753d e294 493d 71b8 813b
00000380: 3def f73d 7591 d83d dc86 94bc 882f 413d
00000390: 5c13 1cbd 82a2 30bd 76d6 803d 48e7 c8bb
000003a0: 8f94 bc3c 87b2 3bbd 3bb1 203d 6722 f2bc
000003b0: 630b d93d 64f1 bbbc 8d68 1dbc 0cd8 f13d
000003c0: e6e7 883b 0083 2cbb 950a 5a3d 6d34 353d
000003d0: 7a94 b43c 76d5 f63d f0d2 853d 4037 b43d
000003e0: 7c46 173c e461 1abd 5e7b 693d c74d 493d
000003f0: 3a2f f93c 548a 1bbc c496 2fbd 125e d2bc

layers.2.weight f4 [128, 256]
0.018065907 0.11895354 -0.04778427 0.1246119 -0.022680677 -0.03754471 0.0774746 -0.014243383
0.077071704 0.0018881187 0.03354317 0.099854834 -0.037060894 0.03937538 0.036437675 0.006877639
0.033233106 -0.04881555 -0.057562336 0.048971683 -0.047051057 -0.018222224 0.04311253 -0.039905764
-0.020603888 0.050059818 0.07462052 -0.029473258 0.05402258 0.055936582 0.041540407 -0.027652219
-0.02857501 -0.020365737 0.05296366 -0.043840762 0.032367885 0.09410943 -0.03681764 0.05799599
0.028396651 -0.049456745 0.058964826 -0.009444185 0.10530404 0.079135686 0.04969217 0.056418207
0.025826737 -0.018456236 -0.02637007 0.0470464 0.09687507 -0.0018118438 -0.03594785 0.056436382
0.0176744 -0.00017080056 0.022315651 0.03076981 0.027024388 0.12781194 0.05265584 -0.06097147
0.027998822 -0.03915342 -0.00087921676 0.1267892 0.03362432 0.07411008 0.0039046353 0.047016013
0.029162144 -0.037435234 -0.019597813 0.054471232 -0.061088324 -0.011545453 -0.029390655 -0.009847932
0.072101735 -0.029470898 0.037657402 0.052369222 0.036199242 -0.026132777 -0.015399575 -0.04478029
0.11540424 -0.036845952 0.029693075 0.076746926 0.026707873 -0.017113082 -0.024040582 -0.021212555
0.042430818 0.0594821 0.122560464 0.020605696 0.04719069 -0.049020678 0.010709637 -0.0013010129
0.041572914 0.085611746 0.04040879 0.020643333 0.0952301 -0.0492407 -0.04430961 -0.0062847915
-0.0142002255 -0.03770691 0.042586032 -0.03589542 0.13395287 0.016548457 0.0846156 0.10565012
0.048803903 -0.00086289 0.038179696 0.0023308694 0.053603433 0.04215485 0.10204108 -0.0045294166
0.04303515 -0.045485497 -0.041395683 0.04953672 0.06869664 -0.0435569 -0.031150289 0.04039448
-0.04092673 0.07125113 -0.020798676 -0.05799386 0.05770216 0.029136179 0.10186112 0.04295284
-0.020005248 0.042000182 0.07643703 -0.020137742 -0.027755864 0.1370453 -0.03655146 0.052771322
-0.008779837 0.018885558 0.11031107 0.12575129 0.014882848 -0.031799436 0.0078086127 0.040194772
0.034753934 0.00801503 -0.0049740914 -0.0180341 -0.042511374 0.02070665 0.06215701 0.049969934
0.011266217 0.05508826 0.04036852 0.021039046 -0.007366903 0.061096273 0.015172198 0.12872326
0.059670746 -0.06238021 -0.021525346 -0.018091083 -0.00018092287 0.0002245158 0.047111057 0.028330691
0.023864731 0.033895552 0.038222168 -0.021657474 -0.050974563 -0.044109426 0.12491719 -0.03232
-0.006234817 0.022529066 -0.041052625 -0.059325308 -0.0020204224 0.052933745 0.04523556 0.11051361
0.09840095 0.13042174 -0.029402038 0.0007582456 0.00795386 0.020724814 -0.044840425 0.0107828295
0.07688125 0.014358215 0.13093199 -0.051006474 -0.025445223 -0.003962085 0.04479764 0.05168718
-0.011374883 0.05748897 -0.056534067 0.031397723 -0.009451322 0.053850792 0.10122563 0.038892705
0.10630549 0.03440138 0.035229027 0.05343006 0.015058875 -0.035358764 0.0457508 -0.004127264
0.13305119 -0.03477975 0.0073269233 0.01833491 0.1285893 -0.017347276 0.059614956 0.027928865
-0.042748682 -0.009962775 0.059309028 0.055675283 0.12639815 0.07989676 0.098629534 0.03075743
0.006117937 0.0057013296 0.019446699 0.019107014 0.059419334 0.036291443 -0.003422387 0.025238313
00000000: f4fe 933c ea9d f33d 70b9 43bd 8634 ff3d
00000010: d4cc b9bc 7bc8 19bd 01ab 9e3d 145d 69bc
00000020: c5d7 9d3d c07a f73a 9064 093d b180 cc3d
00000030: 2acd 17bd 1448 213d ac3f 153d d15d e13b
00000040: 701f 083d d0f2 47bd 7cc6 6bbd 8896 483d
00000050: 9cb8 40bd c646 95bc c496 303d 3a74 23bd
00000060: 7cc9 a8bc 860b 4d3d a5d2 983d e771 f1bc
00000070: c846 5d3d c21d 653d 4626 2a3d e886 e2bc
00000080: 2416 eabc 0cd6 a6bc 6cf0 583d 5f92 33bd
00000090: 3094 043d 72bc c03d 18ce 16bd 348d 6d3d
000000a0: 18a0 e83c 2893 4abd 1a85 713d c8bb 1abc
000000b0: a5a9 d73d e411 a23d 048a 4b3d c716 673d
000000c0: 9892 d33c 8831 97bc 0c06 d8bc bab3 403d
000000d0: 7066 c63d 647b edba 0e3e 13bd d629 673d
000000e0: e7c9 903c ed18 33b9 50cf b63c f810 fc3c
000000f0: 4062 dd3c 22e1 023e a6ad 573d 38bd 79bd
00000100: c95d e53c 565f 20bd 3d7b 66ba 07d5 013e
00000110: a8b9 093d 07c7 973d e9e4 7f3b dd93 403d
00000120: 73e5 ee3c b055 19bd 988b a0bc 3a1d 5f3d
00000130: c037 7abd 2429 3dbc acc4 f0bc 3859 21bc
00000140: 13aa 933d f46c f1bc a63e 1a3d 1c81 563d
00000150: a845 143d 6814 d6bc 804e 7cbc 8a6b 37bd
00000160: 0f59 ec3d c8eb 16bd e43e f33c 7e2d 9d3d
00000170: 78ca da3c bc30 8cbc c1f0 c4bc f4c5 adbc
00000180: f0cb 2d3d 81a3 733d fb00 fb3d 47cd a83c
00000190: 064b 413d e8c9 48bd 7977 2f3c c086 aaba
000001a0: 5c48 2a3d 3655 af3d b083 253d 351c a93c
000001b0: 0008 c33d 9eb0 49bd fe7d 35bd a7f0 cdbb
000001c0: 10a8 68bc 9072 1abd b16e 2e3d 1307 13bd
000001d0: f12a 093e a190 873c f24a ad3d 175f d83d
000001e0: 9ae6 473d 9133 62ba 5062 1c3d 80c1 183b
000001f0: 468f 5b3d 90aa 2c3d eafa d03d 806b 94bb
00000200: a045 303d 004f 3abd 858e 29bd 04e7 4a3d
00000210: d3b0 8c3d b868 32bd e42e ffbc af74 253d
00000220: c9a2 27bd 1dec 913d fc61 aabc f88a 6dbd
00000230: 1a59 6c3d ffae ee3c 909c d03d 51ef 2f3d
00000240: 0ce2 a3bc 6208 2c3d 058b 9c3d e8f7 a4bc
00000250: 4460 e3bc 9a55 0c3e fcb6 15bd be26 583d
00000260: 4ed9 0fbc e3b5 9a3c c5ea e13d f2c4 003e
00000270: 30d7 733c 2040 02bd 64df ff3b 46a3 243d
00000280: 245a 0e3d 7951 033c b4fd a2bb 40bc 93bc
00000290: 6820 2ebd fea0 a93c 5998 7e3d 46ad 4c3d
000002a0: f095 383c 3aa4 613d 7659 253d 145a ac3c
000002b0: 1066 f1bb 1640 7a3d d094 783c 08d0 033e
000002c0: 5069 743d 6482 7fbd ec55 b0bc c033 94bc
000002d0: 1db6 3db9 006c 6b39 86f7 403d c415 e83c
000002e0: f87f c33c 10d6 0a3d d98e 1c3d 046b b1bc
000002f0: b4ca 50bd 16ac 34bd 95d4 ff3d fa61 04bd
00000300: 704d ccbb e08e b83c cc26 28bd 18ff 72bd
00000310: 1069 04bb 0ed1 583d ec48 393d f654 e23d
00000320: 7086 c93d 478d 053e 8bdc f0bc 00c5 463a
00000330: e850 023c 16c7 a93c 98aa 37bd 77aa 303c
00000340: eb73 9d3d b83e 6b3c 0913 063e 2aec 50bd
00000350: 8072 d0bc 61d4 81bb bb7d 373d f0b5 533d
00000360: b85d 3abc 8e79 6b3d 4490 67bd e69a 003d
00000370: b8d9 1abc a692 5c3d 624f cf3d f54d 1f3d
00000380: b1b6 d93d 76e8 0c3d 504c 103d 7bd9 5a3d
00000390: 80b9 763c 5ad4 10bd 3165 3b3d 003e 87bb
000003a0: 923e 083e 3675 0ebd b016 f03b 1833 963c
000003b0: eaac 033e e01b 8ebc d02e 743d 13cb e43c
000003c0: 3e19 2fbd e83a 23bc 06ee 723d c40b 643d
000003d0: 846e 013e eaa0 a33d 48fe c93d 01f7 fb3c
000003e0: fa78 c83b 38d2 ba3b af4e 9f3c 5086 9c3c
000003f0: b061 733d 56a6 143d 204a 60bb 94c0 ce3c

layers.2.bias f4 [128]
0.08208951 -0.05824313 0.11814071 0.1095876 0.01936173 -0.056062683 -0.009779625 -0.040069595
0.040807284 0.048219044 0.056610726 -0.015335731 0.035515293 -0.009838954 -0.030819237 -0.005963469
-0.05534701 0.020514801 0.12820038 0.051432513 0.035410758 -0.062436886 -0.034359604 0.10004667
0.01653886 0.013184081 0.044036534 -0.04689739 0.003971711 -0.03392127 -0.029431544 -0.0367881
0.11328562 0.12001979 -0.02329234 0.046110425 0.07488376 0.07743562 0.032005552 0.11904666
0.03285721 0.038862843 -0.010853484 0.045693412 0.059802927 0.09590081 -0.016633786 0.13170499
0.016307041 0.110941835 0.03816334 0.118510306 0.062118575 0.053010207 -0.069577724 -0.001000848
-0.0062212413 0.11813891 -0.06749412 0.11557116 0.04992129 0.010686703 0.035808064 0.10375065
-0.022640172 0.04227941 -0.028334787 0.045352645 0.11271288 0.008956052 0.01849901 -0.05927778
0.035081603 0.0586227 0.06431985 -0.023130443 -0.050749507 0.051805347 0.026621908 0.12898663
-0.009080663 -0.05599369 0.04813826 0.038012274 0.13141213 0.050172962 0.10785112 0.057832103
0.06756967 0.057457414 -0.013564176 -0.050520815 -0.06639873 -0.03555282 0.054955006 0.061454747
0.05465424 -0.006541602 -0.017560821 0.037659228 0.041401055 -0.04689929 0.053318113 0.028767781
-0.06479185 0.013090316 -0.039338887 -0.05664242 -0.0482376 0.052072816 -0.0037013877 0.032980096
0.013375091 -0.028876357 0.035284728 0.085718066 0.014114288 0.02534002 0.07970613 0.004106529
-0.01286751 0.03366344 0.028892994 0.01662726 -0.06695817 0.013903476 -0.02572341 0.101400524
00000000: 8c1e a83d 5990 6ebd c2f3 f13d 776f e03d
00000010: 7e9c 9e3c fca1 65bd b83a 20bc 0420 24bd
00000020: 8a25 273d 5581 453d a6e0 673d b842 7bbc
00000030: 7c78 113d 9033 21bc a078 fcbc 3469 c3bb
00000040: 8cb3 62bd a80e a83c f646 033e e6aa 523d
00000050: df0a 113d d2bd 7fbd a8bc 0cbd 45e5 cc3d
00000060: 817c 873c 0b02 583c a75f 343d 7a17 40bd
00000070: 2025 823b 08f1 0abd 6c1a f1bc 1eaf 16bd
00000080: 4b02 e83d f0cc f53d 94cf bebc 49de 3c3d
00000090: a85c 993d 9196 9e3d 4118 033d bcce f33d
000000a0: 4895 063d a52e 1f3d d0d2 31bc 0429 3b3d
000000b0: eaf3 743d a567 c43d 9443 88bc acdd 063e
000000c0: 5896 853c 7935 e33d 2a51 1c3d 88b5 f23d
000000d0: 0c70 7e3d 3b21 593d c47e 8ebd e32e 83ba
000000e0: 8edb cbbb d0f2 f13d 5b3a 8abd 93b0 ec3d
000000f0: 447a 4c3d 4817 2f3c 7aab 123d 397b d43d
00000100: e277 b9bc 2d2d 2d3d 5b1e e8bc b2c3 393d
00000110: 03d6 e63d 68bc 123c 3c8b 973c 42cd 72bd
00000120: bab1 0f3d 5b1e 703d 20ba 833d 0e7c bdbc
00000130: b7de 4fbd d831 543d 3016 da3c 1215 043e
00000140: 10c7 14bc a459 65bd a02c 453d c2b2 1b3d
00000150: e790 063e 2a82 4d3d 0ce1 dc3d 5be1 6c3d
00000160: f861 8a3d 7758 6b3d 473c 5ebc eaee 4ebd
00000170: 0ffc 87bd d59f 11bd 8018 613d f9b7 7b3d
00000180: 20dd 5f3d ef5a d6bb b6db 8fbc 9040 1a3d
00000190: 2794 293d 7819 40bd 1864 5a3d 69aa eb3c
000001a0: 97b1 84bd c478 563c d021 21bd e201 68bd
000001b0: ca94 45bd 4e4a 553d fb92 72bb 2316 073d
000001c0: 3323 5b3c 1c8e ecbc b886 103d f48c af3d
000001d0: 9d3f 673c e095 cf3c f83c a33d 1090 863b
000001e0: 40d2 52bc ade2 093d 00b1 ec3c e435 883c
000001f0: 5d21 89bd 68cb 633c e7b9 d2bc 14ab cf3d

layers.4.weight f4 [64, 128]
0.0065227076 -0.051340487 -0.019256413 -0.05986443 0.06600455 0.05518488 -0.07424694 -0.010227062
-0.02471678 -0.014737107 -0.078837514 -0.034643896 0.07556368 -0.065485686 0.0061312616 -0.018053368
0.023565054 0.052374385 -0.0843751 0.055036105 -0.021319807 0.07841403 -0.061959825 0.07946735
0.034752563 -0.06976564 0.05838477 0.008163959 0.036632366 0.0196824 -0.012437828 0.042788573
-0.052038386 0.05354535 0.080345 -0.029401798 0.001070112 0.04896889 0.0028590858 -0.010758191
-0.018637724 -0.02278132 -0.07530254 0.068702795 -0.04036922 0.030613646 0.051526032 -0.035782147
-0.0073713586 0.059102215 -0.069083005 0.0700076 0.050608076 -0.05671283 0.04365111 -0.04425946
0.039858557 -0.07701553 -0.031374462 -0.02893224 -0.055715792 0.011120245 -0.05937688 -0.053142477
-0.067494914 -0.0756142 -0.024030037 0.05946093 0.07215377 -0.05021953 0.045331754 -0.08583296
0.018770956 -0.032911114 -0.07616881 0.054646976 0.043319263 0.04852871 -0.055154882 0.079214625
-0.045480758 0.022056416 -0.031445004 -0.06205325 -0.065387055 -0.0031409338 0.013707779 0.03551539
-0.02237127 -0.059365194 -0.054940704 -0.012234502 0.051411606 0.014157519 0.037347205 0.032122187
-0.014756843 -0.036627654 -0.060798585 -0.062239334 -0.0050296783 -0.024377681 0.0560193 -0.042793866
-0.045767292 0.04565785 -0.047568165 -0.08708209 0.01700171 0.08446077 -0.020427302 -0.007966965
-0.020524591 0.057448067 0.07612441 -0.037056193 -0.028853953 -0.030399658 0.007994741 -0.010390885
0.07486332 -0.007705413 -0.05096539 -0.07927207 -0.029866394 -0.068422556 -0.08722349 -0.066149354
0.05179107 0.041215785 0.14667806 0.11245699 0.10398823 -0.004975848 -0.0017602816 0.078524895
0.021019854 0.0074963965 0.10146294 -0.0331294 -0.040030718 0.075154446 -0.017690383 0.02512015
-0.056916203 0.0660815 0.12851284 0.07920953 0.12114585 -0.073592424 0.01482778 0.0073072226
-0.020193646 0.12029821 0.026615445 0.050380252 0.05814112 0.0839836 0.011860132 0.07915635
-0.0062253065 0.08898762 0.041488886 0.013258429 0.08141243 0.14405453 0.10215448 0.1299581
0.01010069 0.113958985 -0.0829102 0.0021318123 0.06999118 0.082036465 0.017872974 0.030112473
0.08718688 0.051096097 0.1576299 0.030349702 0.07384575 0.15509139 0.007341579 -0.030264374
0.014832977 -0.008728046 0.07847521 0.00842411 -0.006463863 -0.06463176 0.06674034 0.049436178
-0.035271265 0.15702797 -0.06935437 -0.05316221 0.07664299 -0.016510025 0.047480524 0.086617246
-0.037589405 0.14707868 0.08865179 0.071479484 0.081351705 0.11220325 -0.0014745593 0.15072632
0.04874165 0.017555743 0.013446934 -0.02161251 0.13210352 -0.019589039 0.008980275 0.10159612
0.1626165 0.11757553 -0.06701688 0.060995884 0.034976028 -0.043848198 0.0855493 0.10558873
0.05040521 -0.008586338 -0.00054519903 0.024445245 0.07413183 0.020563781 0.035532504 0.0684562
-0.08001622 0.12570792 -0.012331061 -0.04211287 0.08685375 -0.041540798 -0.037037645 0.07082494
0.13559943 0.020716548 -0.06552188 0.02538723 -0.018199671 0.062430866 0.15013269 -0.015520401
-0.05005191 0.03561639 -0.081454 0.08685433 -0.062088516 0.08510361 0.035602693 0.08674871
00000000: 70bc d53b 674a 52bd a0bf 9dbc 6834 75bd
00000010: 652d 873d 8a09 623d c80e 98bd 688f 27bc
00000020: d87a cabc e873 71bc 9075 a1bd c2e6 0dbd
00000030: 21c1 9a3d 5c1d 86bd c0e8 c83b a8e4 93bc
00000040: 800b c13c 8686 563d dacc acbd 8a6d 613d
00000050: e0a6 aebc 8997 a03d 96c9 7dbd c7bf a23d
00000060: b458 0e3d 4ae1 8ebd de24 6f3d 20c2 053c
00000070: d20b 163d fc3c a13c 08c8 4bbc 1243 2f3d
00000080: 3426 55bd 5e52 5b3d eb8b a43d 0adc f0bc
00000090: 0043 8c3a 9a93 483d 805f 3b3b 2043 30bc
000000a0: 24ae 98bc e49f babc 3838 9abd 0db4 8c3d
000000b0: 325a 25bd 78c9 fa3c f60c 533d 4d90 12bd
000000c0: 708b f1bb 2a15 723d 647b 8dbd 2560 8f3d
000000d0: 6a4a 4f3d b64b 68bd 82cb 323d 6849 35bd
000000e0: ba42 233d 51ba 9dbd 8282 00bd 4e03 edbc
000000f0: 3e36 64bd b031 363c 2c35 73bd edab 59bd
00000100: c63a 8abd 9edb 9abd a4da c4bc 4e8d 733d
00000110: 5bc5 933d feb2 4dbd caad 393d 31c9 afbd
00000120: 8cc5 993c cecd 06bd 65fe 9bbd 82d5 5f3d
00000130: 8a6f 313d 0ac6 463d 16ea 61bd 473b a23d
00000140: 084a 3abd a8af b43c 7acc 00bd 8c2b 7ebd
00000150: a6e9 85bd 20d8 4dbb 9896 603c 9678 113d
00000160: f443 b7bc eb28 73bd 8109 61bd 3873 48bc
00000170: fa94 523d f0f4 673c 62f9 183d 8e92 033d
00000180: b0c6 71bc e106 16bd f007 79bd acee 7ebd
00000190: 00d0 a4bb b4b3 c7bc 7e74 653d 9f48 2fbd
000001a0: 7c76 3bbd ba03 3b3d d6d6 42bd 1858 b2bd
000001b0: 2c47 8b3c c5f9 ac3d 2857 a7bc e087 02bc
000001c0: 3023 a8bc aa4e 6b3d 1de7 9b3d 3cc8 17bd
000001d0: 205f ecbc b408 f9bc 60fc 023c 883e 2abc
000001e0: f151 993d b07d fcbb 16c1 50bd 6559 a2bd
000001f0: 5eaa f4bc 2021 8cbd 3ba2 b2bd 5079 87bd
00000200: df22 543d e2d1 283d c632 163e da4f e63d
00000210: c8f7 d43d 700c a3bb 40b9 e6ba a9d1 a03d
00000220: d431 ac3c 55a4 f53b cdcb cf3d b2b2 07bd
00000230: 40f7 23bd 93ea 993d 6ceb 90bc c6c8 cd3c
00000240: f720 69bd bd55 873d df98 033e 9b38 a23d
00000250: 511b f83d a0b7 96bd 38f0 723c 6d71 ef3b
00000260: 256d a5bc e85e f63d a208 da3c 865b 4e3d
00000270: 6225 6e3d 98ff ab3d 0051 423c b91c a23d
00000280: a8fd cbbb 243f b63d 40f0 293d e239 593c
00000290: 8fbb a63d 0883 133e 5e36 d13d bc13 053e
000002a0: 5d7d 253c 5463 e93d d3cc a9bd e0b5 0b3b
000002b0: 8957 8f3d bc02 a83d 586a 923c 6fae f63c
000002c0: 098f b23d 244a 513d bc69 213e f09f f83c
000002d0: 713c 973d 47d0 1e3e a191 f03b feec f7bc
000002e0: 0406 733c 1400 0fbc 9cb7 a03d 4705 0a3c
000002f0: d0ce d3bb a85d 84bd 29af 883d 977d 4a3d
00000300: 9a78 10bd f1cb 203e aa09 8ebd 9ec0 59bd
00000310: 00f7 9c3d 0840 87bc f07a 423d 6264 b13d
00000320: 59f7 19bd cb9b 163e 128f b53d d663 923d
00000330: b99b a63d d1ca e53d 0046 c1ba 0058 1a3e
00000340: 53a5 473d 10d1 8f3c 8750 5c3c b80c b1bc
00000350: 2546 073e 3179 a0bc 0122 133c a011 d03d
00000360: f184 263e 71cb f03d 2540 89bd d2d6 793d
00000370: 0643 0f3d 2b9a 33bd 7934 af3d e73e d83d
00000380: b275 4e3d b6ad 0cbc b0eb 0eba 6541 c83c
00000390: 6ed2 973d 6075 a83c 888a 113d c432 8c3d
000003a0: 8bdf a3bd 94b9 003e 3808 4abc 8b7e 2cbd
000003b0: 61e0 b13d af26 2abd c9b4 17bd ab0c 913d
000003c0: 94da 0a3e c0b5 a93c 5630 86bd e1f8 cf3c
000003d0: 7a17 95bc 82b7 7f3d 62bc 193e 4849 7ebc
000003e0: 3b03 4dbd 7ee2 113d 5bd1 a6bd afe0 b13d
000003f0: 8750 7ebd cd4a ae3d 21d4 113d 4fa9 b13d

layers.4.bias f4 [64]
0.008511767 0.03616896 0.0057017207 -0.07712688 0.107444085 -0.0006574504 -0.0484686 0.045220625
0.017634641 0.08255346 -0.018088838 -0.019622954 0.0020197136 0.061416276 -0.0101052215 0.070510015
0.09624738 -0.082882695 -0.04191129 0.057639785 0.05410151 -0.09438544 -0.022181414 -0.10483103
0.109987386 0.06812469 0.14459488 0.023720957 -0.00830053 0.043848224 -0.03665717 0.093761116
0.020781195 0.04989849 0.075738184 -0.014734847 0.0014999672 -0.017207 0.074856736 0.0463415
0.039201297 0.039739467 0.018059924 -0.04510762 0.029398507 -0.0020834804 0.027536293 -0.02811674
0.041030485 0.10993895 0.12492726 0.041839667 0.08302339 0.024891919 0.050245054 0.019730844
-0.046768915 -0.040241934 -0.081769034 0.11431632 0.12601772 0.0055869934 0.065223254 0.13577929
00000000: f074 0b3c e725 143d 80d5 ba3b b3f4 9dbd
00000010: a50b dc3d c058 2cba 0387 46bd 4339 393d
00000020: 8676 903c ca11 a93d 0b2f 94bc 51c0 a0bc
00000030: 2c5d 043b a28f 7b3d 5f90 25bc 8e67 903d
00000040: 591d c53d 67be a9bd 2cab 2bbd b217 6c3d
00000050: 8c99 5d3d 274d c1bd ccb5 b5bc a7b1 d6bd
00000060: 1141 e13d f584 8b3d ae10 143e 7452 c23c
00000070: f2fe 07bc 329a 333d d425 16bd d405 c03d
00000080: 533d aa3c 5c62 4c3d 9f1c 9b3d 6d6a 71bc
00000090: 8c9a c43a b2f5 8cbc 7d4e 993d 96d0 3d3d
000000a0: 8a91 203d dac5 223d 68f2 933c c5c2 38bd
000000b0: 23d5 f03c 008b 08bb cb93 e13c 1455 e6bc
000000c0: 950f 283d ac27 e13d ddd9 ff3d 1260 2b3d
000000d0: 2b08 aa3d 23ea cb3c c2cd 4d3d 94a2 a13c
000000e0: c390 3fbd bad4 24bd 8676 a7bd ad1e ea3d
000000f0: ca0a 013e 1913 b73b c593 853d ba09 0b3e

layers.6.weight f4 [1, 64]
0.06961334 -0.12556127 -0.009123936 0.06492358 -0.120321974 0.112599395 0.0743874 0.0053312955
0.038258694 -0.16392724 -0.17490575 -0.19863868 0.0059998366 0.06948537 -0.09202328 -0.0723606
-0.16180956 0.027046949 -0.010596709 -0.09156498 -0.10342344 0.072086036 0.123573735 0.020245992
-0.16474451 -0.17138773 -0.07247961 -0.14543372 -0.15265231 0.0064325556 0.0908227 -0.098948434
-0.14988567 0.019683294 -0.10862502 -0.13565382 -0.18737322 0.11526671 0.027584419 0.057453472
-0.0514493 -0.16440074 0.10927102 0.026997522 -0.07765419 -0.003962964 -0.19711865 0.11368407
-0.1284441 -0.16320106 -0.08399964 0.045620423 -0.090246715 -0.13630141 -0.06026636 -0.027047455
-0.10778907 0.05370026 0.042713955 -0.14948712 -0.07386513 0.03677372 0.0831984 -0.18542989
00000000: 7091 8e3d 2293 00be 907c 15bc a7f6 843d
00000010: 5e6b f6bd 839a e63d 6c58 983d 26b2 ae3b
00000020: 26b5 1c3d 8bdc 27be 7e1a 33be f067 4bbe
00000030: 479a c43b 584e 8e3d b476 bcbd cb31 94bd
00000040: 68b1 25be 9091 dd3c d29d 2dbc 6c86 bbbd
00000050: abcf d3bd d8a1 933d 3a14 fd3d ecda a53c
00000060: c9b2 28be 4480 2fbe 3170 94bd 94ec 14be
00000070: e350 1cbe 30c8 d23b 4001 ba3d 7aa5 cabd
00000080: a17b 19be dc3e a13c cb76 debd d6e8 0abe
00000090: c4de 3fbe f410 ec3d b8f8 e13c 5554 6b3d
000000a0: 80bc 52bd ab58 28be 7cc9 df3d e829 dd3c
000000b0: 2909 9fbd c0db 81bb 79d9 49be 32d3 e83d
000000c0: da86 03be 2e1e 27be 0108 acbd 7bdc 3a3d
000000d0: 45d3 b8bd 9992 0bbe dcd9 76bd a092 ddbc
000000e0: 84c0 dcbd cef4 5b3d d4f4 2e3d 2713 19be
000000f0: 9a46 97bd 0aa0 163d ec63 aa3d 55e1 3dbe
